best_model.pth (torch, 21794 bytes, 19 tensors)

fc1.weight f4 [64, 8]
0.19403258 0.21509735 -0.074364126 0.24408066 -0.040870253 0.046069764 -0.14820708 0.13856617
0.26457044 -0.1872872 0.2308201 0.08280581 0.21910883 0.05582983 0.14340767 -0.07578224
0.18960643 0.02031377 -0.13973388 0.050630458 -0.11419133 -0.05750097 -0.097261615 0.19362913
-0.17777543 -0.1508565 -0.024405733 -0.17299914 0.052718148 -0.29703975 0.22004753 -0.20980822
0.23712645 0.10586153 -0.11626728 0.115116976 0.059956606 0.19328375 0.07901953 -0.0819904
0.07642341 -0.05878092 0.097962014 0.2546873 0.15842627 -0.11914884 0.17638204 0.032709617
0.15250674 -0.18551807 -0.26673326 -0.0613323 -0.19526112 0.21618356 0.06391192 0.16647273
0.08046503 -0.02092278 0.20942351 -0.17636335 0.067270555 -0.18986589 0.07139971 -0.15090519
0.06201654 -0.10650722 0.23004684 -0.1596518 -0.15289663 -0.17567106 0.2357154 0.085831
0.23966971 -0.23922484 -0.26783964 -0.17641343 -0.15607001 0.09814763 0.057487346 0.23115987
-0.11572564 -0.22214651 0.16544937 -0.113316156 0.18155771 -0.062305454 0.13046317 -0.23247124
-0.123555265 0.052858584 0.04876104 -0.12460124 0.15395953 0.15697823 -0.21104942 -0.17007491
0.24316303 -0.13194773 -0.07285735 -0.26807997 -0.106616296 0.057510145 -0.05895066 -0.17842342
0.023031786 -0.15256153 -0.21841936 -0.13233545 -0.20534371 -0.18385376 0.27178568 0.07405422
0.060350485 -0.26951006 -0.14585619 -0.06770565 0.03532967 -0.24862759 -0.095120534 -0.130858
-0.014561763 -0.104403466 0.0117199635 -0.15576038 -0.1402607 -0.15871678 -0.0945686 -0.18649971
0.2454715 -0.047795266 0.2271533 0.056240477 -0.2151044 0.1628646 -0.079427086 -0.08022331
-0.20361303 -0.32410824 0.07565442 -0.05656948 0.09831823 -0.19607666 0.17385767 -0.22675312
-0.034427058 0.120143674 0.13892826 0.21318725 0.25136903 -0.20829554 0.09838559 -0.07724658
-0.025120215 -0.26271802 0.24067369 -0.23233789 0.16864832 0.08901652 0.05717734 -0.20499465
0.2292403 0.064300455 0.014615344 -0.22249547 0.102988265 -0.021595115 -0.10486069 0.21010101
0.05569234 -0.20341219 -0.08180685 0.012779725 0.16214712 -0.052042644 -0.15761337 -0.06792257
-0.19060077 0.14153177 0.19458988 -0.2805541 0.08898128 0.14576253 0.09247828 -0.04687991
0.16473128 0.19764413 0.079488404 -0.01118136 -0.06973926 0.06366136 -0.0074393563 -0.0478741
0.19764887 0.2506564 -0.027121732 -0.047229644 0.0066073444 -0.01007834 0.054014668 0.070250474
-0.21216045 -0.17784366 0.20851701 0.14300507 -0.031903494 -0.19169693 -0.25176886 -0.2257647
-0.03316201 0.023243675 0.16932774 0.13926563 -0.2670594 -0.17167416 -0.09718807 0.24758345
0.036589537 -0.1440294 0.098454386 -0.062139805 -0.17713559 0.17800656 -0.21320981 -0.032182775
-0.24852033 0.16785462 0.21221223 0.09335192 -0.16048606 -0.27809492 -0.2052293 0.24275479
0.18298799 0.30567348 0.1314253 0.044078726 0.019590838 -0.18630078 -0.22090244 -0.25367677
0.061155215 -0.24156988 -0.024479844 -0.11215669 -0.0141698355 -0.14396241 -0.14420368 0.15996793
-0.08384552 0.16374649 -0.08624186 -0.18584937 -0.03271124 -0.1397672 -0.06521484 -0.25069386
00000000: 7ab0 463e 7b42 5c3e 384c 98bd 48f0 793e
00000010: 9167 27bd a6b3 3c3d 99c3 17be 4ae4 0d3e
00000020: c775 873e 37c8 3fbe 1b5c 6c3e 1896 a93d
00000030: 115e 603e d2ad 643d 76d9 123e b833 9bbd
00000040: 3028 423e 1069 a63c 6616 0fbe e261 4f3d
00000050: 25dd e9bd 2386 6bbd 1931 c7bd b746 463e
00000060: c30a 36be 207a 1abe 88ee c7bc b026 31be
00000070: fcee 573d 9815 98be 2454 613e f7d7 56be
00000080: 47d1 723e eecd d83d 8a1d eebd 73c2 eb3d
00000090: 0f95 753d 2dec 453e fed4 a13d 95ea a7bd
000000a0: e083 9c3d 43c4 70bd 4fa0 c83d 6066 823e
000000b0: 7f3a 223e 4f04 f4bd 7e9d 343e 85fa 053d
000000c0: ba2a 1c3e 73f8 3dbe 4391 88be 9437 7bbd
000000d0: 88f2 47be 395f 5d3e 41e4 823d d477 2a3e
000000e0: daca a43d 4066 abbc 1e73 563e 9898 34be
000000f0: 25c5 893d 346c 42be 033a 923d e486 1abe
00000100: 0e05 7e3d 7520 dabd 6691 6b3e c37b 23be
00000110: ef90 1cbe 1de3 33be 615f 713e 2ac8 af3d
00000120: fa6b 753e 5bf7 74be 4722 89be b9a5 34be
00000130: d1d0 1fbe a001 c93d da77 6b3d 2cb5 6c3e
00000140: 9001 edbd 607a 63be 8f6b 293e 4d12 e8bd
00000150: 44ea 393e 0134 7fbd 2398 053e f10c 6ebe
00000160: 8b0a fdbd 3e82 583d a8b9 473d ef2e ffbd
00000170: 91a7 1d3e e7be 203e 571d 58be 1e28 2ebe
00000180: bbff 783e 4e1d 07be 3c36 95bd c741 89be
00000190: a559 dabd c28f 6b3d 3f76 71bd a1b4 36be
000001a0: 28ad bc3c 1739 1cbe 53a9 5fbe f282 07be
000001b0: 9f45 52be 2944 3cbe 7e27 8b3e bda9 973d
000001c0: 1232 773d 39fd 89be 535b 15be 43a9 8abd
000001d0: d8b5 103d 3b98 7ebe 8ece c2bd a4ff 05be
000001e0: 7694 6ebc 7cd1 d5bd 1705 403c a67f 1fbe
000001f0: 80a0 0fbe a786 22be 2fad c1bd c8f9 3ebe
00000200: e25c 7b3e f8c4 43bd e09a 683e 6a5c 663d
00000210: 5444 5cbe fac5 263e abaa a2bd 1e4c a4bd
00000220: ef7f 50be 84f1 a5be b4f0 9a3d 66b5 67bd
00000230: 115b c93d 52c8 48be bf07 323e f831 68be
00000240: 6303 0dbd e30d f63d 3643 0e3e c24d 5a3e
00000250: 71b3 803e 6d4b 55be 627e c93d 7433 9ebd
00000260: e9c8 cdbc fa82 86be 2a73 763e fce9 6dbe
00000270: 25b2 2c3e 4b4e b63d c932 6a3d 1eea 51be
00000280: f8bd 6a3e f5af 833d 3275 6f3c dad5 63be
00000290: 83eb d23d 3de8 b0bc 34c1 d6bd b824 573e
000002a0: a71d 643d 494b 50be 5a8a a7bd 0d62 513c
000002b0: e509 263e ab2a 55bd 6665 21be fd1a 8bbd
000002c0: d92c 43be b4ed 103e 9242 473e c9a4 8fbe
000002d0: d13b b63d c642 153e 4165 bd3d 2605 40bd
000002e0: 51af 283e 3963 4a3e d1ca a23d 0632 37bc
000002f0: 75d3 8ebd e360 823d d8c5 f3bb a217 44bd
00000300: 7764 4a3e 0956 803e 652e debc df73 41bd
00000310: 6c82 d83b 9f1f 25bc 7c3e 5d3d 7bdf 8f3d
00000320: 9740 59be a61c 36be 7c85 553e ec6f 123e
00000330: 3dad 02bd 334c 44be d9e7 80be dd2e 67be
00000340: e3d4 07bd 8569 be3c 4064 2d3e a69b 0e3e
00000350: 02bc 88be 5acb 2fbe 8a0a c7bd 8486 7d3e
00000360: e9de 153d 717c 13be 74a2 c93d 4f86 7ebd
00000370: 0863 35be 5a47 363e ac53 5abe 16d2 03bd
00000380: 1d7c 7ebe 15e2 2b3e 2a4e 593e 4b2f bf3d
00000390: 7556 24be 7562 8ebe a127 52be b694 783e
000003a0: 3461 3b3e 3c81 9c3e 5b94 063e e58b 343d
000003b0: f77c a03c a2c5 3ebe 4034 62be ece1 81be
000003c0: e47d 7a3d 185e 77be f489 c8bc 68b2 e5bd
000003d0: 9928 68bc e26a 13be 21aa 13be a2ce 233e
000003e0: 33b7 abbd 29ad 273e 939f b0bd 4c4f 3ebe
000003f0: 39fc 05bd 221f 0fbe 5c8f 85bd f25a 80be

fc1.bias f4 [64]
0.06740677 -0.19228704 -0.16033426 -0.20925127 0.19317442 -0.26312247 0.15589197 -0.06333315
-0.079947315 0.14127691 -0.02767376 0.13952698 0.1814038 -0.20573488 0.06019466 0.020620842
0.04177166 0.017428484 0.09591586 -0.07782415 -0.028558977 0.25073856 0.1648261 -0.006818482
-0.25130084 0.04358983 -0.15521812 0.18515582 -0.13152666 -0.024024598 -0.04747932 0.04451594
0.23451269 0.036967147 0.13898386 0.17826319 0.18942186 -0.11774796 -0.038490303 0.102112524
-0.05771025 0.08410235 -0.023589158 -0.16458932 0.07201568 0.05250338 0.098055564 0.25626075
0.15672 0.25773033 0.034624733 -0.22036228 -0.21873897 -0.17134134 -0.232676 -0.120271884
-0.23402639 -0.25039083 -0.14956157 -0.29494056 -0.15811598 0.06399554 0.23020007 -0.060106136
00000000: 900c 8a3d e5e6 44be aa2e 24be f745 56be
00000010: 84cf 453e fdb7 86be 25a2 1f3e d0b4 81bd
00000020: 6bbb a3bd e5aa 103e 15b4 e2bc 29e0 0e3e
00000030: ebc1 393e 2aac 52be ad8e 763d 0aed a83c
00000040: c318 2b3d 2ec6 8e3c 896f c43d 4562 9fbd
00000050: 84f4 e9bc ce60 803e 2cc8 283e 936d dfbb
00000060: 81aa 80be 408b 323d 80f1 1ebe 7d99 3d3e
00000070: edae 06be 3ccf c4bc ad79 42bd 5956 363d
00000080: 1824 703e dd6a 173d c951 0e3e a08a 363e
00000090: cef7 413e d825 f1bd 02a8 1dbd 5f20 d13d
000000a0: 9561 6cbd da3d ac3d 0d3e c1bc 1a8a 28be
000000b0: f57c 933d c90d 573d 5bd1 c83d 9c34 833e
000000c0: 357b 203e 3bf5 833e aad2 0d3d a6a6 61be
000000d0: 1cfd 5fbe 1b74 2fbe 9e42 6ebe 1b51 f6bd
000000e0: 9da4 6fbe 3a33 80be ab26 19be 7302 97be
000000f0: 28e9 21be 1810 833d 91b9 6b3e da31 76bd

bn1.weight f4 [64]
0.8886275 0.8841914 0.8872706 0.87912893 0.8840122 0.885669 0.88535357 0.88363194
0.88530964 0.8844661 0.8875484 0.88353354 0.88201433 0.88488555 0.87778914 0.89076364
0.8831719 0.87025464 0.8831184 0.8903149 0.8830716 0.88707787 0.8792368 0.8842349
0.88301504 0.8808668 0.88507533 0.88187385 0.88693106 0.88257337 0.87782216 0.8860413
0.8873446 0.8868036 0.87697816 0.8842882 0.87960607 0.8765901 0.8864296 0.8878742
0.88424563 0.882123 0.8826326 0.8817509 0.8851088 0.87343824 0.8911189 0.8863414
0.88625324 0.88122636 0.88395506 0.88441974 0.88292485 0.8829869 0.88144135 0.88001096
0.88804996 0.8826662 0.88253486 0.88231933 0.8855377 0.8851486 0.88250923 0.88608044
00000000: 187d 633f 5e5a 623f 2b24 633f 980e 613f
00000010: a04e 623f 34bb 623f 88a6 623f b435 623f
00000020: a7a3 623f 5f6c 623f 5f36 633f 412f 623f
00000030: b1cb 613f dc87 623f cab6 603f 1609 643f
00000040: 8e17 623f 02c9 5e3f 0c14 623f adeb 633f
00000050: fb10 623f 8917 633f aa15 613f 385d 623f
00000060: 460d 623f 7d80 613f 4c94 623f 7cc2 613f
00000070: ea0d 633f 54f0 613f f4b8 603f 9ad3 623f
00000080: 0429 633f 9005 633f a481 603f b660 623f
00000090: dd2d 613f 3568 603f 0ded 623f b94b 633f
000000a0: ec5d 623f d0d2 613f 36f4 613f 6dba 613f
000000b0: 7e96 623f a699 5f3f 5e20 643f 45e7 623f
000000c0: 7ee1 623f 0d98 613f e14a 623f 5569 623f
000000d0: 5d07 623f 6e0b 623f 24a6 613f 6648 613f
000000e0: 3e57 633f 69f6 613f ceed 613f aedf 613f
000000f0: 99b2 623f 1999 623f 20ec 613f 2bd6 623f

bn1.bias f4 [64]
-0.025012609 0.0009806629 0.0003480608 0.011329367 0.008425296 -0.02898193 -0.007204144 -0.011897259
-0.017206557 0.009568543 -0.017029429 -0.0051572933 0.0034590312 -0.0041706166 -0.004025481 -0.015086636
0.010935583 0.0014956667 0.018991273 -0.0089666145 -0.014267272 -0.011011246 -0.002825796 0.021626787
-0.012078455 -0.002832571 -0.019697677 -0.017487364 0.040061403 0.012936163 -0.00096031127 0.020396298
-0.005503947 0.017770339 0.004190352 -0.013754995 -0.011453485 -0.023980597 0.02365275 -0.008491278
-0.023043262 -0.010990618 -0.0039255405 -0.0104300855 -0.0008684303 0.00043605728 -9.829535e-05 -0.027143013
-0.0043178806 0.036907054 0.008984915 -0.01560671 -0.012925211 0.0063104415 -0.012687318 -0.011611579
0.019343875 0.021896865 0.00421309 -0.022253951 -0.0052930517 0.019675732 0.027961124 -0.024082039
00000000: 3ee7 ccbc 9689 803a ee7b b639 cf9e 393c
00000010: 410a 0a3c 836b edbc bd10 ecbb b9ec 42bc
00000020: c4f4 8cbc 61c5 1c3c 4d81 8bbc 83fe a8bb
00000030: eab0 623b aba9 88bb 2fe8 83bb f02d 77bc
00000040: 292b 333c 3f0a c43a 9693 9b3c b5e8 12bc
00000050: 47c1 69bc 8368 34bc fd30 39bb a92a b13c
00000060: b6e4 45bc a8a2 39bb 065d a1bc a941 8fbc
00000070: 6d17 243d 33f2 533c 66bd 7bba 2316 a73c
00000080: 745a b4bb 1a93 913c 384f 893b a15c 61bc
00000090: 66a7 3bbc f572 c4bc 69c3 c13c 001f 0bbc
000000a0: 39c5 bcbc fe11 34bc d2a1 80bb f3e2 2abc
000000b0: 5fa7 63ba 9e9e e439 ea23 ceb8 065b debc
000000c0: 027d 8dbb da2b 173d 7735 133c 49b3 7fbc
000000d0: 44c4 53bc d2c7 ce3b 78de 4fbc 7e3e 3ebc
000000e0: 0c77 9e3c 0e61 b33c f60d 8a3b eb4d b6bc
000000f0: 5671 adbb 002f a13c ba0e e53c b247 c5bc

bn1.running_mean f4 [64]
0.27406877 0.111874476 0.088052295 0.13840307 0.31925192 0.06311152 0.25071242 0.09495974
0.13664281 0.27521035 0.13711326 0.2326694 0.26164606 0.10617887 0.21942015 0.1710781
0.21462043 0.21348369 0.2095887 0.10772917 0.19561894 0.26241323 0.28147376 0.14045048
0.07932266 0.20309098 0.102116786 0.25543436 0.13149938 0.17809035 0.13026671 0.19080925
0.27957726 0.1799677 0.29826275 0.2672001 0.29134932 0.08191501 0.15664372 0.30716252
0.1534867 0.2178642 0.12827592 0.08295061 0.25719795 0.19456567 0.21897987 0.3809365
0.25315318 0.32939672 0.16897374 0.079525754 0.06365012 0.06978608 0.035808004 0.15948875
0.08111558 0.056097567 0.13277069 0.04909613 0.06801449 0.25792143 0.32556504 0.115449145
00000000: be52 8c3e 721e e53d c354 b43d 89b9 0d3e
00000010: fd74 a33e 9d40 813d 615d 803e 417a c23d
00000020: 18ec 0b3e 5fe8 8c3e 6b67 0c3e e340 6e3e
00000030: 79f6 853e 4f74 d93d adaf 603e 192f 2f3e
00000040: 75c5 5b3e 789b 5a3e 6c9e 563e 1ca1 dc3d
00000050: 5550 483e 075b 863e 541d 903e 40d2 0f3e
00000060: eb73 a23d 15f7 4f3e 9b22 d13d 4bc8 823e
00000070: c6a7 063e 515d 363e a364 053e 8063 433e
00000080: c024 8f3e 7449 383e e5b5 983e 74ce 883e
00000090: bd2b 953e 0fc3 a73d 3667 203e 6844 9d3e
000000a0: 9e2b 1d3e cb17 5f3e c35a 033e 02e2 a93d
000000b0: 73af 833e 393c 473e 423c 603e 1c0a c33e
000000c0: 4b9d 813e b0a6 a83e 7407 2d3e 66de a23d
000000d0: fe5a 823d 01ec 8e3d 6aab 123d 0551 233e
000000e0: ed1f a63d 90c6 653d 0af5 073e 0619 493d
000000f0: 2e4b 8b3d 470e 843e 76b0 a63e 9a70 ec3d

bn1.running_var f4 [64]
0.118243724 0.05938862 0.029729346 0.07446329 0.106080964 0.037116326 0.08100416 0.028221007
0.053512793 0.10644468 0.045157675 0.07084998 0.0772054 0.05642749 0.09771697 0.06829917
0.079724535 0.093275234 0.10993056 0.032449715 0.08105408 0.058330156 0.09756193 0.037843835
0.025054 0.07808384 0.04845813 0.054902878 0.07295857 0.05836489 0.038442522 0.06638559
0.07951456 0.05327758 0.12445074 0.07812469 0.100366585 0.022816192 0.08476759 0.17143247
0.057458613 0.07404097 0.03297258 0.031966 0.120591864 0.06267231 0.074372694 0.16156916
0.09629078 0.07539893 0.051419225 0.06579823 0.021134933 0.019574514 0.01745853 0.1040014
0.027220415 0.019174421 0.092704765 0.01640787 0.019379977 0.09768811 0.104366094 0.030274713
00000000: c429 f23d 7b41 733d f58a f33c 3680 983d
00000010: fa40 d93d 4a07 183d 82e5 a53d be2f e73c
00000020: 3b30 5b3d abff d93d 41f7 383d cb19 913d
00000030: dd1d 9e3d 8320 673d d61f c83d 6fe0 8b3d
00000040: 9e46 a33d 1607 bf3d 4623 e13d fee9 043d
00000050: aeff a53d 9aeb 6e3d 8dce c73d 2302 1b3d
00000060: 0c3e cd3c 6cea 9f3d 087c 463d d7e1 603d
00000070: 4e6b 953d 0610 6f3d e875 1d3d 2bf5 873d
00000080: 88d8 a23d 9739 5a3d 08e0 fe3d d6ff 9f3d
00000090: ff8c cd3d 06e9 ba3c a19a ad3d fe8b 2f3e
000000a0: b959 6b3d cba2 973d 420e 073d c8ee 023d
000000b0: def8 f63d 575a 803d b650 983d 6372 253e
000000c0: 1a34 c53d c16a 9a3d f79c 523d 39c1 863d
000000d0: 2b23 ad3c bb5a a03c 3105 8f3c b0fe d43d
000000e0: 59fd de3c ad13 9d3c ffdb bd3d cc69 863c
000000f0: c2c2 9e3c b410 c83d e4bd d53d ad02 f83c

fc2.weight f4 [32, 64]
-0.015346467 0.05041782 -0.041681245 -0.06394883 0.0684193 -0.06340224 -0.014603399 0.033284433
0.00944519 0.019586997 -0.09644068 0.0005719529 -0.02801774 0.0031088544 -0.001005661 0.03988126
-0.07479111 -0.027397139 -0.062873825 -0.09252607 -0.0153413415 -0.12717324 0.04803251 0.013820271
-0.020409657 -0.00538748 -0.044973094 -0.04213088 0.013138235 -0.098862946 -0.079387315 -0.031746898
0.065153666 0.064463995 0.0675405 -0.079744525 -0.05862418 0.036897365 0.039170258 0.013547331
-0.04800234 -0.11971812 -0.020435106 0.07678198 -0.022224322 -0.03611125 -0.070372045 -0.025795495
0.0009162241 -0.057996888 -0.020956222 0.011254685 -0.07658581 0.011528353 -0.06624529 -0.041874763
0.01641804 0.05843317 -0.03935724 -0.023730319 -0.090134844 -0.036782987 -0.04054549 -0.037480257
0.027811036 -0.08107219 0.09924505 0.024714217 -0.09521216 -0.075167105 0.03903979 -0.02114399
-0.0010828862 -0.033582572 0.05942095 -0.027856927 0.034684557 -0.018068563 0.0322807 0.07450405
0.010451902 -0.062629364 -0.019093843 0.09358358 -0.05288438 0.052246127 -0.10315254 0.018515244
0.030853733 0.056848377 0.060221374 0.031659145 0.054237686 -0.04504808 0.008137109 0.02297457
0.08973656 0.040379874 -0.078371234 0.1284617 -0.038579132 -0.018419895 -0.08878539 -0.027975887
0.10749756 0.033903353 -0.039109394 0.013449721 -0.030594079 0.07875775 -0.03357165 -0.029898379
-0.12242494 -0.09702178 0.036741637 0.06638337 0.012426686 0.05158193 0.031631805 0.051409665
0.03818884 0.07191689 -0.05236797 0.09504968 0.052430436 -0.057541046 -0.057178773 -0.10679455
0.005362213 -0.03819296 0.054228853 0.04333819 -0.08389521 0.03596641 0.014038655 0.093966216
0.09758033 -0.06831356 0.11503516 0.081170045 0.060809754 -0.052808758 -0.003469562 0.00034966346
-0.021880144 0.056941375 0.048785318 0.112541966 -0.019363796 0.059218112 0.03155465 -0.07792003
-0.0854152 -0.022005264 0.061615456 -0.0722801 -0.09157805 0.07033709 0.07970865 0.08297348
-0.042349987 -0.07268444 0.036161795 0.0992944 0.07516549 0.02751032 0.014189119 0.05924569
-0.039276905 -0.009567002 0.06511843 -0.06106934 -0.044930637 0.08962196 0.02910074 0.035732266
-0.043746967 -0.019249098 0.090037115 -0.05201915 0.013160833 0.05702946 -0.06607799 0.07905894
-0.005172543 -0.031468794 0.004493779 -0.04077654 -0.060309265 0.04067525 0.0004337693 -0.078307256
-0.046535235 0.0859358 0.012589497 0.0035320355 -0.035897285 -0.03848909 -0.043078616 -0.06975448
-0.080518365 -0.017103348 -0.021833887 -0.014865462 -0.0147565305 -0.064081326 -0.013019898 -0.00515959
-0.036423527 -0.13160363 0.048916534 -0.017494556 -0.03073188 0.06381204 -0.0365166 0.111015685
0.07818068 -0.116425686 0.04858998 -0.09778237 -0.05812216 -0.015030669 -0.1045409 0.07140113
-0.053553008 0.05414144 -0.05848631 0.027097765 -0.05253449 -0.12046797 0.028320681 0.07242247
0.056978032 -0.09644187 -0.062664315 0.008268074 0.012107027 -0.011123769 0.028864393 -0.0028355448
0.06794228 0.105224185 -0.047610547 0.06519585 0.028133944 0.09773915 -0.0487623 -0.036501326
-0.054215107 0.023917507 0.04634234 -0.07022959 0.014338971 -0.012112556 0.09661624 -0.015965816
00000000: bf6f 7bbc eb82 4e3d f4b9 2abd 9bf7 82bd
00000010: 6b1f 8c3d 09d9 81bd 1843 6fbc 4255 083d
00000020: 00c0 1a3c e974 a03c b182 c5bd 1cef 153a
00000030: 7685 e5bc ecbd 4b3b 62d0 83ba 885a 233d
00000040: 152c 99bd f76f e0bc fec3 80bd 4f7e bdbd
00000050: 405a 7bbc b439 02be bdbd 443d 6b6e 623c
00000060: 2732 a7bc 7589 b0bb b535 38bd 6e91 2cbd
00000070: c041 573c a878 cabd d195 a2bd 0909 02bd
00000080: 496f 853d b305 843d ac52 8a3d 1951 a3bd
00000090: e81f 70bd b121 173d fe70 203d a0f5 5d3c
000000a0: 1a9e 44bd c62e f5bd 8667 a7bc df3f 9d3d
000000b0: c80f b6bc 64e9 13bd 381f 90bd 1351 d3bc
000000c0: c22e 703a 258e 6dbd 62ac abbc 9265 383c
000000d0: 05d9 9cbd 6be1 3c3c 9cab 87bd df84 2bbd
000000e0: 207f 863c 9f57 6f3d 0f35 21bd 1666 c2bc
000000f0: 9e98 b8bd c2a9 16bd 0713 26bd e684 19bd
00000100: f8d3 e33c 2d09 a6bd fd40 cb3d 7875 ca3c
00000110: 98fe c2bd 36f1 99bd 30e8 1f3d 2936 adbc
00000120: a2ef 8dba e18d 09bd 6263 733d 3634 e4bc
00000130: 6511 0e3d 8604 94bc c438 043d 9495 983d
00000140: 743e 2b3c d343 80bd b16a 9cbc bfa8 bf3d
00000150: 4b9d 58bd 0900 563d a441 d3bd 48ad 973c
00000160: f8c0 fc3c d8d9 683d b0aa 763d 05ad 013d
00000170: 5628 5e3d 5684 38bd 8251 053c 2a35 bc3c
00000180: cdc7 b73d 5e65 253d 1981 a0bd 778b 033e
00000190: 2705 1ebd 52e5 96bc 1dd5 b5bd b02d e5bc
000001a0: ae27 dc3d 3ede 0a3d 2c31 20bd 385c 5c3c
000001b0: 6fa0 fabc be4b a13d 6d82 09bd 72ed f4bc
000001c0: edb9 fabd 5bb3 c6bd 667e 163d 01f4 873d
000001d0: 4c99 4b3c 9347 533d 5a90 013d f192 523d
000001e0: e76b 1c3d 2a49 933d cc7f 56bd 68a9 c23d
000001f0: 4cc1 563d 29b0 6bbd 4a34 6abd 1ab7 dabd
00000200: 81b5 af3b 3970 1cbd 131f 5e3d 6383 313d
00000210: 40d1 abbd 8451 133d 6302 663c 5c71 c03d
00000220: 32d8 c73d fbe7 8bbd 8e97 eb3d 7b3c a63d
00000230: a613 793d ff4d 58bd 9761 63bb 0953 b739
00000240: fd3d b3bc 5c3b 693d 1dd3 473d 677c e63d
00000250: d3a0 9ebc b18e 723d 733f 013d 8994 9fbd
00000260: 2aee aebd 6244 b4bc 7d60 7c3d 9707 94bd
00000270: 468d bbbd e40c 903d 4a3e a33d 00ee a93d
00000280: 2e77 2dbd 94db 94bd 641e 143d dd5a cb3d
00000290: 5df0 993d 535d e13c 7b79 683c 9cab 723d
000002a0: d2e0 20bd eabe 1cbc d05c 853d d823 7abd
000002b0: 3009 38bd b88b b73d ad64 ee3c ff5b 123d
000002c0: 0530 33bd 49b0 9dbc 6165 b83d 0812 55bd
000002d0: 89a0 573c b997 693d e653 87bd a7e9 a13d
000002e0: 707e a9bb 6ce5 00bd 8d40 933b 4d05 27bd
000002f0: d906 77bd 179b 263d 886b e339 8e5f a0bd
00000300: bb9b 3ebd 1cff af3d 2d44 4e3c b979 673b
00000310: 0809 13bd bca6 1dbd 3473 30bd 70db 8ebd
00000320: d0e6 a4bd 521c 8cbc fbdc b2bc 448e 73bc
00000330: 60c5 71bc 123d 83bd 6951 55bc c711 a9bb
00000340: d630 15bd 1ac3 06be b45c 483d be50 8fbc
00000350: 6cc1 fbbc e3af 823d 6e92 15bd 315c e33d
00000360: 311d a03d 9770 eebd 4906 473d 2042 c8bd
00000370: 8111 6ebd 3243 76bc 8a19 d6bd c13a 923d
00000380: 665a 5bbd 6ac3 5d3d 578f 6fbd 22fc dd3c
00000390: 682e 57bd e9b7 f6bd c600 e83c 3b52 943d
000003a0: cc61 693d 5183 c5bd 2656 80bd d176 073c
000003b0: 8d5c 463c 7840 36bc 0575 ec3c 8cd4 39bb
000003c0: 5225 8b3d c77f d73d 4703 43bd 6785 853d
000003d0: 2879 e63c 772b c83d faba 47bd 6a82 15bd
000003e0: a910 5ebd a6ee c33c 77d1 3d3d 88d4 8fbd
000003f0: 01ee 6a3c be73 46bc bcde c53d beca 82bc

fc2.bias f4 [32]
0.0015064903 0.10882554 -0.026443563 0.08568741 0.052015778 -0.024511931 0.03422698 -0.018122703
0.04960582 0.056276537 -0.035778426 -0.017196992 0.076502346 0.08069333 0.031935513 0.06038421
-0.005113121 0.05087656 0.12562841 0.06710363 -0.043778982 -0.0005958694 -0.048625942 0.012593044
0.060840834 -0.027266154 0.023493294 0.046449833 0.09646017 -0.045540974 -0.054567926 -0.033755116
00000000: 6d75 c53a eddf de3d 2ca0 d8bc e17c af3d
00000010: 7f0e 553d 3fcd c8bc 9731 0c3d 1076 94bc
00000020: 792f 4b3d 3a82 663d 668c 12bd b5e0 8cbc
00000030: 43ad 9c3d 8b42 a53d d0ce 023d 6f55 773d
00000040: f88b a7bb f163 503d bca4 003e a16d 893d
00000050: 9751 33bd 1e34 1cba ff2b 47bd 0e53 4e3c
00000060: 3d34 793d 455d dfbc 0275 c03c 2e42 3e3d
00000070: e98c c53d 2c89 3abd 9e82 5fbd ce42 0abd

bn2.weight f4 [32]
0.88257265 0.88258165 0.8843483 0.8912783 0.8848449 0.87991756 0.88195366 0.90287894
0.8791256 0.88306427 0.8827548 0.8863257 0.88861454 0.86882055 0.8887153 0.88530517
0.8808789 0.8768749 0.88614166 0.8791521 0.89125574 0.89056385 0.8820671 0.88585263
0.8845526 0.89311635 0.8732543 0.89060223 0.8772736 0.887121 0.88738894 0.87530196
00000000: 48f0 613f dff0 613f a664 623f d12a 643f
00000010: 3285 623f 4742 613f b7c7 613f 1323 673f
00000020: 600e 613f 8010 623f 38fc 613f 3ee6 623f
00000030: 3e7c 633f 066b 5e3f d982 633f 5ca3 623f
00000040: 4881 613f e07a 603f 2eda 623f 1d10 613f
00000050: 5629 643f fefb 633f 26cf 613f 3dc7 623f
00000060: 0a72 623f 46a3 643f 988d 5f3f 82fe 633f
00000070: 0195 603f 5d1a 633f ec2b 633f ca13 603f

bn2.bias f4 [32]
0.04023625 -0.006740683 -0.068142936 0.06012008 -0.041333184 0.056550607 0.013356058 -0.011541387
0.022633985 0.013736193 -0.04393163 0.0044734734 -0.030115768 0.0066966256 0.028265363 0.025165368
-0.021274224 -0.0024878415 0.005616186 0.009541964 -0.020435689 -0.01975745 0.020036371 0.0023398339
0.006072191 0.032334864 0.03268268 0.008298825 0.038281143 0.019791078 -0.060027894 -0.009757249
00000000: c4ce 243d f3e0 dcbb 868e 8bbd 7940 763d
00000010: fc4c 29bd 9ca1 673d 5ed3 5a3c 1618 3dbc
00000020: e86a b93c c50d 613c a7f1 33bd 3796 923b
00000030: 58b5 f6bc 5e6f db3b c38c e73c 9a27 ce3c
00000040: 4847 aebc 0e0b 23bb fc07 b83b e655 1c3c
00000050: bf68 a7bc 60da a1bc 5123 a43c e657 193b
00000060: 3bf9 c63b 9071 043d 46de 053d cbf7 073c
00000070: b0cc 1c3d e620 a23c cfdf 75bd dedc 1fbc

bn2.running_mean f4 [32]
0.26490295 0.38867036 0.28115547 0.37284786 0.30776685 0.36624238 0.22774054 0.23206209
0.3692141 0.31511557 0.1790273 0.2417708 0.361927 0.46075195 0.34623927 0.27635664
0.30557618 0.3831462 0.37499705 0.412646 0.19718647 0.20437102 0.21984208 0.30133194
0.35180432 0.18083848 0.43134686 0.3567184 0.4965807 0.20620182 0.25768453 0.3170352
00000000: 5ca1 873e cdff c63e 9cf3 8f3e eae5 be3e
00000010: 9e93 9d3e 1f84 bb3e d134 693e afa1 6d3e
00000020: a109 bd3e d456 a13e ef52 373e c492 773e
00000030: 7f4e b93e aee7 eb3e 4646 b13e 9e7e 8d3e
00000040: 7b74 9c3e bd2b c43e 9dff bf3e 5646 d33e
00000050: 40eb 493e a346 513e 481e 613e 2e48 9a3e
00000060: b21f b43e b92d 393e 7fd9 dc3e cba3 b63e
00000070: d33f fe3e 9226 533e 3aef 833e 7052 a23e

bn2.running_var f4 [32]
0.13732377 0.28687048 0.26072258 0.25501752 0.23833798 0.273131 0.09775659 0.16275248
0.2899379 0.29019675 0.12258396 0.16112642 0.26364547 0.31676725 0.26355335 0.20253517
0.20504278 0.35547864 0.26385885 0.3236524 0.0992061 0.12021639 0.11843206 0.22826901
0.36469305 0.11589167 0.27067655 0.26812902 0.3372805 0.13472046 0.24649733 0.2996065
00000000: 9a9e 0c3e b0e0 923e 6e7d 853e a891 823e
00000010: df0e 743e d4d7 8b3e 9b34 c83d 96a8 263e
00000020: be72 943e ab94 943e 4d0d fb3d 53fe 243e
00000030: 8afc 863e 512f a23e 77f0 863e 6165 4f3e
00000040: bcf6 513e 4c01 b63e 8218 873e c4b5 a53e
00000050: 912c cb3d 0334 f63d 828c f23d 5abf 693e
00000060: 0cb9 ba3e 9d58 ed3d 1e96 8a3e 3548 893e
00000070: 08b0 ac3e 29f4 093e cc69 7c3e 0666 993e

fc3.weight f4 [16, 32]
0.076330185 -0.15782891 -0.032372303 -0.0013868678 -0.13831915 -0.011596908 -0.10864603 -0.08186301
-0.05197189 -0.08488332 -0.11108466 0.097491175 -0.035408653 -0.013383756 -0.068134256 0.0850622
-0.089809686 -0.13956122 -0.17225592 0.027981745 -0.0416817 -0.099505395 0.11319759 -0.17267425
0.0919158 -0.08712193 0.0243128 0.0735606 -0.01434384 0.09413175 -0.050271053 -0.06473626
-0.047067903 -0.010178006 0.056386597 0.112303 -0.035115734 -0.023136944 0.088569894 -0.003281624
0.04254867 -0.044505235 -0.03547603 -0.10648563 0.08601503 0.0745581 -0.1081182 -0.040419802
-0.020807745 -0.046395373 -0.013287325 -0.008468671 -0.012497186 -0.05577496 0.04421766 -0.10969014
-0.037546694 0.12609978 0.15272465 0.078373596 0.116581425 0.10615688 0.07589949 -0.016495198
0.056517504 0.07385401 0.06497486 -0.019271703 -0.048761558 -0.021991694 0.037333895 -0.12418329
-0.0059090904 -0.004359644 0.068347596 0.025877062 -0.11269156 0.13352135 0.0012594328 -0.11932856
0.1701212 0.066577256 0.022783557 0.045609586 0.011664112 -0.04603106 0.00078908005 0.013069675
0.013789382 0.07078109 -0.091218926 0.15598558 -0.009596714 0.09117415 0.16788295 -0.008931288
0.07290373 0.1438839 0.12250386 -0.0793484 0.14170007 -0.027180666 0.050697483 -0.0065284176
0.15034786 0.068068095 -0.06766635 0.07481572 -0.032574546 -0.12971675 -0.05405179 0.055448357
-0.1122683 0.018770976 -0.008061329 -0.022307128 -0.08412824 -0.07505537 -0.041573834 0.084846556
0.006899883 0.03404625 -0.13274951 -0.11757843 -0.08341749 -0.036908817 0.041527603 -0.025539728
-0.07692473 0.110912085 -0.05723541 0.05517962 -0.0017235796 -0.06420599 -0.058209375 -0.02720409
0.00029645814 -0.09562104 0.026963854 -0.013710189 0.103955954 0.04253323 0.097023554 0.023558425
0.019736607 0.10544705 0.10943199 -0.0947308 0.0020820363 -0.08459935 -0.0167762 0.006823773
0.0888693 0.0134365335 -0.05063342 -0.091667585 -0.11340737 0.03713373 -0.08460835 -0.011651753
0.04259473 -0.02740812 -0.0062966794 0.06630236 0.087727144 -0.11680725 0.03542655 0.07275245
-0.07427796 -0.0048711146 0.014464365 -0.012998884 0.18564321 -0.14137079 0.117721684 -0.036849614
-0.1379255 0.13967277 -0.009026863 -0.04646108 0.09473977 -0.11087154 -0.102330945 0.09911897
0.14316513 -0.02384048 0.0604908 -0.00017940142 -0.012574562 -0.067439325 0.10456093 0.10795902
-0.02157896 0.15254483 -0.08136708 0.0061628795 -0.027922237 -0.054360855 0.028388306 0.061457604
0.0664792 -0.1375966 -0.0671794 -0.008484738 0.008317624 -0.148634 0.14651147 0.014638796
-0.12505168 0.08837792 0.09392995 -0.10581555 0.07797484 -0.092225105 0.042299386 0.13243325
0.09212903 0.059738707 -0.07963943 -0.005394871 0.010325862 0.04363088 -0.057664357 0.045029826
-0.020016562 -0.14362143 -0.16159458 -0.085742295 -0.1264562 0.17731462 0.020983763 -0.13065049
-0.12964949 0.06442787 -0.03554125 -0.05741856 -0.113018036 0.019260755 -0.039287608 -0.020451088
0.1118856 0.04669346 0.07446314 0.036754392 -0.09303376 -0.005551297 -0.06896439 -3.3997538e-05
-0.07185313 -0.03630511 -0.082068466 0.10632536 0.12612198 0.10615832 -0.009916538 -0.00485138
00000000: 0053 9c3d e79d 21be d298 04bd 90c7 b5ba
00000010: 89a3 0dbe f500 3ebc cf81 debd cba7 a7bd
00000020: 7ae0 54bd 4ed7 adbd 5b80 e3bd 74a9 c73d
00000030: aa08 11bd 8b47 5bbc f989 8bbd 1735 ae3d
00000040: 24ee b7bd 23e9 0ebe db63 30be f939 e53c
00000050: 6eba 2abd 7cc9 cbbd 23d4 e73d 85d1 30be
00000060: 5a3e bc3d fc6c b2bd a32b c73c f1a6 963d
00000070: 6d02 6bbc 26c8 c03d 05e9 4dbd 7294 84bd
00000080: 46ca 40bd a7c1 26bc a2f5 663d 1eff e53d
00000090: 84d5 0fbd b089 bdbc 2264 b53d 8410 57bb
000000a0: 8447 2e3d 1f4b 36bd 504f 11bd 2315 dabd
000000b0: a628 b03d ebb1 983d 136d ddbd 3c8f 25bd
000000c0: 0175 aabc 1309 3ebd 15b3 59bc 2ec0 0abc
000000d0: ffc0 4cbc 4974 64bd 941d 353d 39a5 e0bd
000000e0: 90ca 19bd 4d20 013e da63 1c3e 5682 a03d
000000f0: 3ec2 ee3d c768 d93d 3171 9b3d f020 87bc
00000100: e67e 673d c540 973d 8a11 853d b1df 9dbc
00000110: 33ba 47bd ed27 b4bc 6deb 183d cf53 febd
00000120: 0ba1 c1bb 58db 8ebb d3f9 8b3d 22fc d33c
00000130: d5ca e6bd d2b9 083e 8d13 a53a 8862 f4bd
00000140: 4034 2e3e a859 883d 95a4 ba3c 1ed1 3a3d
00000150: d51a 3f3c 118b 3cbd 44da 4e3a 3122 563c
00000160: dcec 613c adf5 903d fdd0 babd afba 1f3e
00000170: 893b 1dbc 83b9 ba3d 82e9 2b3e 8954 12bc
00000180: 8d4e 953d 4d56 133e 4ee3 fa3d 6a81 a2bd
00000190: d319 113e fda9 debc 2aa8 4f3d 56ec d5bb
000001a0: caf4 193e 4967 8b3d a894 8abd fc38 993d
000001b0: e36c 05bd 78d4 04be 6965 5dbd d11d 633d
000001c0: ecec e5bd 97c5 993c aa13 04bc 70bd b6bc
000001d0: 6d4b acbd a1b6 99bd 5349 2abd 08c4 ad3d
000001e0: 6a18 e23b 1574 0b3d 7def 07be f6cc f0bd
000001f0: cad6 aabd b32d 17bd d918 2a3d b138 d1bc
00000200: b68a 9dbd e025 e33d ad6f 6abd 0604 623d
00000210: bce9 e1ba 6e7e 83bd f46c 6ebd 1ddb debc
00000220: f06d 9b39 f7d4 c3bd 4de3 dc3c b3a0 60bc
00000230: dce6 d43d 5337 2e3d 49b4 c63d 99fd c03c
00000240: aaae a13c 9ff4 d73d e11d e03d 3902 c2bd
00000250: c672 083b 6d42 adbd 3e6e 89bc f599 df3b
00000260: 1c01 b63d e824 5c3c fd64 4fbd 37bc bbbd
00000270: 2042 e8bd 8a19 183d 2547 adbd ffe6 3ebc
00000280: d077 2e3d fe86 e0bc 6054 cebb 88c9 873d
00000290: 4aaa b33d a438 efbd 6e1b 113d 3dff 943d
000002a0: 0b1f 98bd df9d 9fbb f2fb 6c3c 45f9 54bc
000002b0: 4119 3e3e 81c3 10be 1118 f13d 9fef 16bd
000002c0: 583c 0dbe 6106 0f3e 68e5 13bc f94d 3ebd
000002d0: ed06 c23d 9e10 e3bd e392 d1bd e3fe ca3d
000002e0: e199 123e 1c4d c3bc 33c5 773d b41d 3cb9
000002f0: 8905 4ebc a11d 8abd 0a24 d63d 9e19 dd3d
00000300: 5cc6 b0bc b634 1c3e c9a3 a6bd fbf1 c93b
00000310: 2dbd e4bc 7da9 5ebd 988e e83c f8ba 7b3d
00000320: 3f26 883d 20e6 0cbe 5a95 89bd 9203 0bbc
00000330: a546 083c 8333 18be 1a07 163e 90d7 6f3c
00000340: 8c0d 00be 7cff b43d 585e c03d d3b5 d8bd
00000350: 46b1 9f3d 84e0 bcbd 1f42 2d3d 959c 073e
00000360: 25ae bc3d 93b0 743d ff19 a3bd 75c7 b0bb
00000370: ce2d 293c 4bb6 323d 7631 6cbd 3271 383d
00000380: c6f9 a3bc 7f11 13be 0d79 25be a899 afbd
00000390: bc7d 01be f791 353e 24e6 ab3c 3ec9 05be
000003a0: d6c2 04be c2f2 833d b493 11bd b92f 6bbd
000003b0: 0076 e7bd bbc8 9d3c 0bec 20bd 0a89 a7bc
000003c0: 4724 e53d a441 3f3d 2180 983d c68b 163d
000003d0: 7c88 bebd a8e7 b5bb 343d 8dbd 9498 0eb8
000003e0: bc27 93bd abb4 14bd 8313 a8bd 1cc1 d93d
000003f0: 1f26 013e 8969 d93d fa78 22bc 53f8 9ebb

fc3.bias f4 [16]
0.15592846 0.01737955 0.07859034 0.08258244 0.12127201 -0.06718107 0.066142544 -0.0038532875
0.10040637 -0.03391451 0.08078805 0.08706452 -0.0060762875 -0.06643602 0.16878188 0.041493926
00000000: b6ab 1f3e 8f5f 8e3c f9f3 a03d fb20 a93d
00000010: 765d f83d 3b96 89bd be75 873d 7087 7cbb
00000020: dba1 cd3d f1e9 0abd 3574 a53d e24e b23d
00000030: 981b c7bb 9c0f 88bd 28d5 2c3e 89f5 293d

bn3.weight f4 [16]
0.92438674 0.88603354 0.9004547 0.8907503 0.87841904 0.8972502 0.9415479 0.911566
0.90167725 0.9058507 0.90543944 0.8971637 0.9076966 0.9115609 0.89375174 0.8894483
00000000: 9ca4 6c3f 18d3 623f 3384 663f 3608 643f
00000010: 12e0 603f 30b2 653f 4809 713f 645c 693f
00000020: 52d4 663f d5e5 673f e1ca 673f 85ac 653f
00000030: ce5e 683f 0e5c 693f eacc 643f e2b2 633f

bn3.bias f4 [16]
0.029191097 0.014984529 0.025042374 -0.032160304 -0.018215487 -0.017414005 -0.0019644573 0.036760222
-0.015807161 0.042430077 -0.016264072 0.047729887 0.03407633 -0.020877266 0.050268076 -0.008363845
00000000: 2b22 ef3c ac81 753c aa25 cd3c 86ba 03bd
00000010: a538 95bc d1a7 8ebc 20be 00bb e391 163d
00000020: 057e 81bc 29cb 2d3d 3b3c 85bc 6a80 433d
00000030: 9f93 0b3d cd06 abbc e6e5 4d3d 8208 09bc

bn3.running_mean f4 [16]
0.46256694 0.24902123 0.27715278 0.36430204 0.3835764 0.30009776 0.45989212 0.35657185
0.4291504 0.4031457 0.3584714 0.484413 0.3839488 0.35105285 0.49389225 0.30240858
00000000: 93d5 ec3e 6cff 7e3e f8e6 8d3e cc85 ba3e
00000010: 2064 c43e 6aa6 993e fb76 eb3e 9690 b63e
00000020: 9ab9 db3e 1d69 ce3e 9089 b73e fb04 f83e
00000030: f094 c43e 33bd b33e 72df fc3e 4cd5 9a3e

bn3.running_var f4 [16]
0.2277032 0.17144567 0.2716611 0.30789408 0.30156624 0.36401093 0.5194286 0.2523477
0.45223674 0.33482555 0.36996675 0.38862813 0.36021012 0.31471452 0.3552447 0.20364149
00000000: 072b 693e 748f 2f3e 2a17 8b3e 4ba4 9d3e
00000010: e466 9a3e a45f ba3e 46f9 043f b833 813e
00000020: 938b e73e 416e ab3e 486c bd3e 44fa c63e
00000030: 766d b83e 4322 a13e a2e2 b53e 6587 503e

fc4.weight f4 [1, 16]
0.16139878 0.04914403 0.0475484 -0.11377769 -0.113743715 -0.13483512 -0.27751884 0.14148104
-0.21579085 0.14571215 -0.12285331 0.17212732 0.17258026 -0.21016107 0.24640468 -0.08870109
00000000: b945 253e 404b 493d 1cc2 423d 4704 e9bd
00000010: 77f2 e8bd 3812 0abe f316 8ebe 68e0 103e
00000020: 47f8 5cbe 9135 153e 849a fbbd 2542 303e
00000030: e1b8 303e 7734 57be 8251 7c3e eba8 b5bd
